mnist.pth (torch, 815936 bytes, 4 tensors)

layer1.weight f4 [256, 784]
000000 b0 7b 18 3b 3c 0f e4 bc 7c 3d 06 bc 37 2d 9b bc
       0.0023267083 -0.027839296 -0.00819337 -0.018942459
000010 18 d6 98 3c 80 06 b1 bb e8 4e 2a 3c b8 11 2e 3c
       0.018656775 -0.005402386 0.010394789 0.010624342
000020 f0 67 0c bb ff 99 0f bd 87 a1 11 bd e3 0a 94 bc
       -0.0021424256 -0.03505897 -0.035554435 -0.018071597
000030 c6 48 62 3d 68 ea 99 3d 59 6b 59 3c c2 d9 e8 bc
       0.055245183 0.075154126 0.013270223 -0.028424148
000040 22 54 ad 3c 93 5a 0a 3d d4 76 dc bb 08 fe da 3c
       0.021158282 0.033777785 -0.0067280326 0.02673246
000050 07 5e 01 3d 00 6d 5d bc c6 72 1e bc b8 af d0 3b
       0.031583812 -0.013514757 -0.009670919 0.0063686036
000060 ab 44 08 bd 15 61 88 bc 62 f0 c7 3c c6 f4 7c bc
       -0.033268612 -0.016647855 0.024406616 -0.015439218
000070 42 49 81 3c 90 38 a3 3b 40 bc 98 3b 63 af 0b 3d
       0.015782002 0.004981108 0.004661113 0.03410281
000080 4a 84 f4 3c af be 88 3c 7d 67 d7 3d 9e 05 c8 3d
       0.029848237 0.016692488 0.10517786 0.097666964
000090 ff 48 9e 3d 19 bd f7 3d 9d d0 4c 3d f1 57 66 3e
       0.07728767 0.120966144 0.050003637 0.22494484
0000a0 e3 a2 1e 3e df 1b 98 3e ce d5 02 3e ce 59 0a 3e
       0.15491824 0.29708764 0.12776873 0.1351082
0000b0 71 c8 73 3e f2 6f 6f 3e 1f 9c 3f 3e 5d 4d 2d 3e
       0.23806931 0.23382547 0.18711899 0.16924043
0000c0 9b f6 6f 3e 6d 64 a9 3d 86 7c ae 3d d3 df d9 3d
       0.23433916 0.08271108 0.08519845 0.10638394
0000d0 cc e5 a2 3c 40 13 10 ba 7e 26 cd bc b8 be 41 3c
       0.019884966 -0.00054960325 -0.025042769 0.011825256
0000e0 90 3d 15 3c aa 88 c7 bc 8e 40 a2 3d d4 42 39 3d
       0.009108916 -0.024357159 0.07922469 0.045229748
0000f0 2c dc 14 3e 91 be 4c 3e 2b c7 f0 3d 37 a1 52 3e
       0.14537114 0.1999457 0.11756738 0.20569311
000100 a1 98 a3 3e 08 a4 9a 3e f3 1e 82 3e 04 93 c5 3e
       0.31952384 0.3020327 0.25414237 0.38588727
000110 ff 9b 9a bd 2a 7e f0 bd c2 f2 16 3e 6a 99 9e 3e
       -0.07549285 -0.11742814 0.14741042 0.3097642
000120 d3 a6 8a 3e af 5c a5 3d 54 fd 9d 3d 57 b8 65 3c
       0.27080402 0.080743186 0.07714334 0.014021001
000130 70 6b f1 bd 23 ce 19 be 65 34 f6 bc 8e 3d 89 bd
       -0.1178807 -0.15020041 -0.03005428 -0.06701194
000140 7d 30 e9 3d 52 3b 70 3d 11 71 03 3d ae 5d 88 bc
       0.113862015 0.058650322 0.03209025 -0.016646232
000150 b2 c0 8d 3c 6f 66 01 bd af 5e d9 bc 0b 2c bd 3d
       0.017303798 -0.03159183 -0.026534406 0.09236916
000160 d7 f6 38 3d e5 de 67 3e f1 e0 61 3e a1 1c 69 3e
       0.04515728 0.22643621 0.22058465 0.22764827
000170 df f1 55 3e 72 64 a4 bc 93 60 cd bd 80 f5 80 bd
       0.20893048 -0.020067427 -0.10028186 -0.062968254
000180 93 7b 04 be d1 16 58 3c 21 0c 1c 3e fb 6e e6 3a
       -0.12937765 0.013189034 0.15239002 0.0017580682
000190 de b0 e2 3d 58 e3 30 3e 58 77 75 3d 14 3f d3 3c
       0.11068891 0.17274225 0.05992827 0.025786914
0001a0 e3 7b a9 3c ab 02 49 bd 8e 2d 68 bd ea 3a d1 bd
       0.020688957 -0.04907481 -0.05668407 -0.10216315
0001b0 bc de 6f 3d 75 47 7a 3d 40 7d fd 3b 00 26 59 ba
       0.058562025 0.061103303 0.007735878 -0.00082835555
0001c0 88 59 e7 3b f2 3d 50 bc d0 67 af bd 06 17 85 bb
       0.0070602335 -0.012710081 -0.085647225 -0.0040615825
0001d0 23 8a 8e 3b 50 3a 9d bc 2e 19 80 3d 62 73 86 bd
       0.0043499633 -0.019192845 0.06254803 -0.06564976
0001e0 17 0b a7 be 71 82 b0 be f4 9c 5c bd bd fd 8f bd
       -0.32625648 -0.3447452 -0.05386062 -0.070308186
0001f0 85 bf 96 be 89 8a a3 be 10 22 77 be 15 1d e3 bd
       -0.29442993 -0.3194163 -0.24134088 -0.11089531
000200 5e 80 ad bc 86 db 97 bc f8 56 b0 bd b9 0f 8a bd
       -0.021179374 -0.018537294 -0.08610338 -0.0674128
000210 3c 55 56 3c fa d4 c9 3d cb 95 01 3d 25 65 2b be
       0.013081845 0.09855075 0.031636994 -0.16737802
000220 e6 57 32 be c2 21 c9 bd 70 c2 74 3b 38 b6 02 3c
       -0.17416343 -0.09820892 0.003734734 0.007978015
000230 e7 5a 04 3d 76 c9 e7 3c 17 ba de bd 44 e6 9b 3d
       0.032313254 0.028294306 -0.108753376 0.07612279
000240 7d 1a 97 3e d0 8d d0 3d 14 27 ab 3d fe e5 9c bc
       0.29512396 0.101832986 0.08357063 -0.019152638
000250 7e 46 5a be 3e 62 27 be bf 36 b3 bd a8 82 0d be
       -0.21315953 -0.1634607 -0.08750676 -0.13819373
000260 fc c3 73 be f4 11 af be 1f e5 de be 30 94 3c be
       -0.23805231 -0.34193385 -0.4353418 -0.18415904
000270 df 5d 04 be 5e 75 19 be e9 ef f1 bd 7d 86 f3 bd
       -0.12926434 -0.14986178 -0.11813337 -0.11890886
000280 c5 22 15 be 49 87 bc 3d fe f3 6f bd 7e 24 14 be
       -0.14564045 0.09205491 -0.0585823 -0.14467046
000290 07 5a c6 bd 9c 05 07 be e1 54 a3 bd 7a 55 fb bc
       -0.0968514 -0.13185734 -0.07975174 -0.030680407
0002a0 ba 6f a2 3c 40 00 38 bc 91 eb 24 be a4 a0 84 3e
       0.019828666 -0.011230528 -0.16105486 0.2590381
0002b0 d7 3c 07 3e bb b9 38 be 6a cb f4 3d fb 0a c4 3d
       0.13206802 -0.180396 0.11952861 0.09572407
0002c0 d5 00 86 bd b6 13 42 3b 25 82 05 bd 1c 0d 88 bd
       -0.065431274 0.00296138 -0.03259482 -0.066431254
0002d0 75 51 f2 bd 4d d9 a1 bd 2a 85 78 be 59 f4 41 be
       -0.11831943 -0.07902775 -0.24269548 -0.18940867
0002e0 0a 12 48 be 2c 66 92 be 3d cd c4 be 0d b4 ab be
       -0.19538131 -0.28593576 -0.38437834 -0.33535805
0002f0 b4 67 97 be c3 13 6c bd 89 22 89 be 4b 04 e2 be
       -0.29571307 -0.057636034 -0.2678416 -0.441439
000300 5b f7 22 be f5 e2 ed 3d e0 1b b7 be ad 78 00 be
       -0.15914671 0.11615554 -0.35763454 -0.12546034
000310 3a 73 90 bb 19 85 27 bc 65 f0 37 be 58 06 42 3e
       -0.0044082673 -0.010224604 -0.17962797 0.18947732
000320 1d 8e 17 3e 02 9e be bc 95 ba 5a 3e ff 6d da 3d
       0.14800306 -0.023268703 0.21360238 0.10665511
000330 e0 f4 48 bd ec 87 19 3d 56 b8 49 bd cf ca a2 bc
       -0.049061656 0.03748314 -0.049248062 -0.019872097
000340 7f 3a ca bc 9b 5d b2 3d 81 89 86 bd 37 cd 2b be
       -0.024686096 0.0870926 -0.065691955 -0.16777502
000350 4a 18 da be e1 dc e5 be b2 d0 09 bf d1 81 14 bf
       -0.42596656 -0.4489508 -0.5383407 -0.58010584
000360 e9 d9 0a bf 29 2c a4 be 2e 06 11 bf d0 02 ae be
       -0.54238755 -0.32064942 -0.56650054 -0.3398652
000370 4a f6 2b 3e 44 4d 75 3e 07 94 7b be 97 1c 98 bd
       0.1679317 0.23955256 -0.24568187 -0.07427328
000380 48 40 23 b9 69 2f 5d 3d 5c 76 4e bb 75 8f a0 3d
       -0.00015568838 0.054000292 -0.0031503653 0.07839862
000390 c7 05 ef 3d 42 0b d2 3d 97 66 a8 3d 00 df 85 bd
       0.11671024 0.102560535 0.082226925 -0.065366745
0003a0 62 26 92 3d a1 af 11 3e af 18 26 3e b5 df 04 3e
       0.07136227 0.14227153 0.16220354 0.12975962
0003b0 22 42 d4 3d 60 f9 11 3e 68 23 f6 3c 0f c1 70 be
       0.10364176 0.14255285 0.03004618 -0.23511146
0003c0 24 e4 df be b5 1f a3 be d4 90 fe be 83 2b 0f bf
       -0.43728745 -0.31860128 -0.4971987 -0.5592577
0003d0 b4 4e 25 bf e3 b6 17 bf 6d 7d cf be 4b bb 10 bd
       -0.64573216 -0.5926344 -0.4052538 -0.035334866
0003e0 6d 5a 1b 3e 58 1d ec bd 84 c3 9d be 2b f4 87 3d
       0.15171213 -0.115290344 -0.3081323 0.06638368
0003f0 99 8d 54 3d 7a ca 53 3e 0d 7c bc 3a a0 eb 8f 3d
       0.05189285 0.20682707 0.0014380232 0.07027364

layer1.bias f4 [256]
000000 d1 8e 0b 3e 08 35 a5 ba 14 d7 2b 3e 3f a5 d7 bb
       0.13628699 -0.0012604306 0.16781265 -0.006580978
000010 64 c6 8c bd 94 55 b4 3d 1e 26 25 3d 0f 4f dc 3a
       -0.068737775 0.08805385 0.040319555 0.0016808229
000020 58 ee 55 ba 41 6e 88 3c 43 0d 3c 3b b4 f8 21 3d
       -0.0008160821 0.016654136 0.0028694428 0.039543822
000030 24 80 b8 bd aa 32 e7 3d 2e 35 80 3d e8 dc 3f 3d
       -0.09008816 0.1128896 0.06260143 0.046841532
000040 77 60 b4 3d 85 13 01 3d 4c 63 14 3d 3c 37 39 3e
       0.08807462 0.031512756 0.03622751 0.18087476
000050 2d 53 2d 3e 1c 9c 6f 3c 43 5d 39 bd 18 e2 60 3c
       0.1692626 0.014624622 -0.045254957 0.01372578
000060 96 5e 38 3e 6b 74 70 3d ba 7f 92 3d c8 3a d6 3d
       0.18004832 0.058704775 0.07153268 0.104604304
000070 f9 4c 80 3d 4b 1c b7 3c 86 e7 e0 bc 0b 11 99 bd
       0.06264681 0.022352358 -0.027454149 -0.07473954
000080 d8 c9 16 39 66 4c 79 3c 26 9b 62 3d bd 61 8f bc
       0.00014380307 0.015215969 0.055323742 -0.01750266
000090 16 a0 0e bd 22 aa b4 3d 64 df 04 3d 57 a6 9c bc
       -0.03482064 0.08821513 0.032439604 -0.019122286
0000a0 0e 84 00 3d 05 62 0f 3e e9 ee 26 3d 62 ad dc 3d
       0.031375937 0.14002235 0.040755186 0.10775258
0000b0 70 4f 9f 3d 24 2d 12 3c 07 ef 8a 3d c4 a3 cf bc
       0.077788234 0.008921895 0.06783872 -0.025346644
0000c0 37 be ee 39 65 0a 62 3d f7 f8 90 3d 8a 08 44 3d
       0.0004553662 0.055185694 0.07078736 0.047859706
0000d0 d3 ac 18 3e f2 fb fb 3d c3 00 71 3d 0d 09 9b bd
       0.14909677 0.12303914 0.058838617 -0.07570086
0000e0 c9 6e e0 bd eb c7 c3 3c b3 b5 ce 3d 2f 80 0d 3e
       -0.109586306 0.02389904 0.1009325 0.1381843
0000f0 f9 0b 92 3c 3d 3b ae bc 6d 84 2a bd ea 7f a7 3c
       0.017827975 -0.021268481 -0.041630197 0.020446736
000100 75 8b 59 3d 0e 7b 26 bd 76 bd c8 3d b1 3c d9 bd
       0.053111512 -0.040644698 0.09801762 -0.10607279
000110 9d 37 4b bd 65 d6 b2 3d 08 1d 0f 3e 9a 58 63 bd
       -0.049613584 0.08732299 0.13975918 -0.05550442
000120 ae 41 df bc 86 af 1d 3e f6 15 20 3c cb 80 f5 3d
       -0.027252998 0.15398988 0.009770861 0.11987456
000130 e2 f8 3e 3d 1d 15 64 3d 0b 3b 6a 3c 2d dd 2e bc
       0.046624072 0.055684198 0.0142963035 -0.01067285
000140 2b 23 40 3d f3 96 dc bd c7 fd cc 3d 1f bc df bc
       0.04690854 -0.10770979 0.10009342 -0.027311383
000150 a8 96 ee bc 11 bb ff 3d 0e 27 09 3e b6 59 0b bd
       -0.029124573 0.12486852 0.13393804 -0.034021102
000160 e4 34 b2 3d 7a b3 5a be 37 35 3a 3d b0 e6 15 bd
       0.08701494 -0.21357527 0.045460906 -0.036596954
000170 d5 9a 24 3d 70 15 eb bd 7c c6 7f 3d 97 85 11 3d
       0.04018672 -0.11478698 0.06244515 0.03552779
000180 5d 4a 42 bb ea 2a ae 3d a1 8f 23 bd ee 59 f8 3a
       -0.0029646375 0.08504279 -0.039931897 0.00189477
000190 54 69 cb 3d 5d 03 30 3e d8 29 35 bd 9a 0a 34 bd
       0.09932199 0.17188783 -0.04422936 -0.043955423
0001a0 92 56 bd 3d aa 54 b9 3c d1 85 92 3d a2 64 32 3d
       0.092450276 0.022623379 0.0715443 0.043553002
0001b0 19 89 31 bd 75 ce f1 bc 9d 71 22 bd e6 9e f2 bb
       -0.043343637 -0.029517392 -0.03965913 -0.007404196
0001c0 97 63 bf bc 02 e7 12 3e a9 9c 25 bd 54 eb 9d ba
       -0.023362918 0.14345935 -0.040432606 -0.0012048283
0001d0 69 5b 40 3e d5 72 61 bd 2c 9e 6f bd 47 db bd bc
       0.1878487 -0.055041153 -0.058500454 -0.023175849
0001e0 06 09 55 3e d1 a8 9c 3d 2a 8d 27 3d 32 bc 27 bc
       0.20804223 0.07649387 0.04090611 -0.01023774
0001f0 06 b1 9d 3d 48 26 ba 3d f4 24 cc 3b 2b 1d ce 3c
       0.0769978 0.09089333 0.006229991 0.025160393
000200 86 11 72 3d 18 ac a9 bc 29 81 c4 3d 53 0e 0f be
       0.059098743 -0.020711944 0.09594948 -0.13970308
000210 38 f8 32 bd 9f 6a a2 bd b7 bd c6 3d 73 80 27 3e
       -0.04369375 -0.079304926 0.09704154 0.16357593
000220 ea 27 c3 3d af 7f ea 3d 6e fa 4c bd a8 d0 31 3e
       0.095290974 0.11450135 -0.050043516 0.17364752
000230 4b bf 5a 3e 7a d9 0d 3d e7 23 3d 3d 40 b3 9a bc
       0.21362035 0.03463123 0.046176817 -0.018884301
000240 fc 71 e2 bc 24 2f e2 bc c6 5f 2b 3c 08 80 d3 3c
       -0.027642243 -0.027610369 0.010459846 0.025817886
000250 6f 8b 85 bc 0e 96 2b bd b6 2b 4c 3d db d9 f9 3c
       -0.016301839 -0.04189115 0.049846373 0.03049939
000260 6d b4 22 be 77 9e 7e 3c ef 06 a2 3d 5c 31 b2 3d
       -0.1588914 0.015540711 0.07911479 0.08700821
000270 b9 8a 32 3e b3 6f 85 3c b9 66 de 3c 78 14 86 3d
       0.17435731 0.016288614 0.027148591 0.06546873
000280 f5 ec 24 3d a1 e2 0f 3d f5 c2 4a 3e 96 9f e8 3d
       0.040265042 0.03512824 0.19800933 0.113585636
000290 a6 78 06 be c2 64 d7 bd 8c 9e 07 3c 5e 8e bf 3b
       -0.13131961 -0.10517265 0.008277547 0.005845829
0002a0 60 28 45 3d a2 38 95 3a 34 84 0c 3e ff d3 0e 3e
       0.048134208 0.0011384676 0.13722306 0.13948058
0002b0 5a 7f 17 3e 58 0b 3b 3c e4 e2 b8 bd 50 2b 2e 3d
       0.14794675 0.011416279 -0.09027651 0.042521775
0002c0 6a 25 2b 3e b8 e0 be bc a7 2f 63 bd ec 9e 85 bc
       0.16713491 -0.023300514 -0.055465367 -0.016311131
0002d0 0c 92 8f 3c 3f 91 4d 3d bb 65 3d bd c2 f0 ad 3d
       0.017525695 0.050187346 -0.046239596 0.084931865
0002e0 0a 4a d8 bd 9c f5 be 3d ef 8a ca bd 87 73 4c bd
       -0.10560997 0.0932419 -0.09889781 -0.049914863
0002f0 9b 3a 56 3d 4c bf 43 bc 21 2a 07 be d0 7e e0 bc
       0.052301984 -0.011947464 -0.13199665 -0.027404219
000300 21 b2 e0 bc bf 69 ef 3c 72 92 11 3c 58 d1 16 3d
       -0.027428688 0.029225228 0.008885013 0.03682074
000310 8c f8 0c 3d 38 92 b6 bb ee 00 19 3e 00 e2 73 3d
       0.03441672 -0.00557163 0.14941761 0.059541702
000320 90 37 e8 3c 90 c6 5d bd 66 c8 b5 3b 5c 46 cb 3d
       0.028346807 -0.054144442 0.005547571 0.09925529
000330 a4 a6 85 3e 81 2f 42 3d d8 d3 3b 3d a1 f4 07 bc
       0.261037 0.047408585 0.045856327 -0.00829807
000340 be 65 b2 bd 1a 8e 86 3d f8 ba 40 3d 16 1d 7f 3d
       -0.08710812 0.065700725 0.047053307 0.062283598
000350 53 b4 41 bd be 86 11 bd e0 3b 94 3d 1f 59 d9 bd
       -0.04729111 -0.03552889 0.07237983 -0.106127016
000360 8e 8d a3 3a be 4b 62 bd 5a a4 8a 3e 08 61 af bd
       0.00124781 -0.055248015 0.27078515 -0.08563429
000370 78 dd 3e 3e 1f 3e 8a bc 07 29 95 bd f3 1b 47 3d
       0.18639171 -0.016875325 -0.07283216 0.04861064
000380 bf 62 34 3d 4a 4c 41 bd be 7a 51 3e b0 78 bc bd
       0.044039484 -0.047191896 0.20456979 -0.09202707
000390 ee ae db 3d 20 5b 26 be be 1c c3 3d 5c fb d9 3b
       0.107267246 -0.16245699 0.095269665 0.006652279
0003a0 78 ce 18 3e 7c 3e 03 3e c6 ac 7c 3d 7e 81 ac 3d
       0.14922512 0.12816805 0.061688207 0.08423136
0003b0 e8 78 c7 bd 56 4e d0 bc eb cb ce 3c e0 55 1a bd
       -0.09739858 -0.025427978 0.02524372 -0.037679553
0003c0 bb 59 84 bd 64 f2 20 bc 68 48 56 bd 97 5a 68 bd
       -0.06462427 -0.009823415 -0.052315146 -0.05672702
0003d0 34 29 91 3e 3d dc fc 3c 94 8a ab 3d dd 84 7a 3d
       0.28351748 0.030866737 0.08376041 0.061161865
0003e0 2e 89 3a bd af 61 0c 3d 76 d6 8e 3d c0 89 c0 3d
       -0.04554098 0.034272846 0.06974499 0.09401274
0003f0 69 bf 18 3e c0 90 8e 3c ac 50 07 3e e9 57 0f 3e
       0.14916767 0.017403007 0.13214368 0.13998379

layer2.weight f4 [10, 256]
000000 9b af b9 3d b8 a8 47 3d 20 0b dd 3c 0b 06 1e 3e
       0.09066697 0.048744887 0.026982844 0.15431993
000010 01 b7 8f 3e 31 46 f7 be 01 4b 92 3e 16 e7 a9 3d
       0.28069308 -0.4829574 0.28572848 0.08296029
000020 99 7c 28 bf 87 19 af bd 75 97 15 3e e1 da e4 bd
       -0.6581512 -0.08549791 0.14608558 -0.1117456
000030 87 ee 95 3d c3 0b af bc c9 4d 40 be 9a 66 3c 3d
       0.07320886 -0.021367913 -0.18779673 0.045996286
000040 8c 21 b8 3d 34 71 22 be 51 a9 96 be 36 f4 67 3e
       0.089907736 -0.15863496 -0.29426053 0.22651753
000050 77 d9 04 3e 8c da e6 bc 73 ab 63 3b 30 92 92 be
       0.12973581 -0.028180383 0.0034739643 -0.28627157
000060 d8 4a 94 be 12 da 38 be 97 d7 36 bf 41 83 27 bf
       -0.2896335 -0.18051937 -0.71422714 -0.6543465
000070 87 a1 95 be 37 20 e8 bd 3a 78 8b 3a 10 c3 07 be
       -0.29224798 -0.113342695 0.0010640689 -0.13258004
000080 3a 68 93 be 5d 71 1c 3c de 81 14 be e9 d7 a8 3d
       -0.28790456 0.009548512 -0.14502665 0.082443066
000090 7e ae 4e 3e 93 f0 69 3d 0c 55 01 be 0b 4b 6f bd
       0.20183751 0.057114195 -0.12630099 -0.058421176
0000a0 f7 4f e7 3d c1 5a 9d be 05 b5 64 be 91 af 0f bf
       0.11294549 -0.30733302 -0.22334678 -0.5612727
0000b0 1e bf 8d be de c7 60 3a 27 a7 05 3e 6f 2a b5 bd
       -0.27684873 0.00085747044 0.13052045 -0.08845984
0000c0 9b f1 db 3d dd 85 49 bd 46 82 9c be 17 56 79 be
       0.10739442 -0.049199928 -0.3056814 -0.24349247
0000d0 fa fa 52 bf c2 44 d8 be ad b3 ec 3c 9f f9 10 be
       -0.8241421 -0.42239958 0.02889427 -0.14157723
0000e0 a0 8d 0c 3d c3 60 b7 3c df db ff 3d 9c 25 8b be
       0.03431475 0.022385007 0.12493109 -0.2717713
0000f0 8d 5a 11 3e 59 68 52 be fd e3 87 bd e3 5c 2a be
       0.14194699 -0.20547618 -0.06635282 -0.16636996
000100 16 b5 88 3e 3a 0c 42 3d 30 2c b3 3d 2b 31 23 3e
       0.26700658 0.04737494 0.087486625 0.15936725
000110 1c 60 67 3e 90 2a ce 3d a9 9d 85 3e 30 01 70 3e
       0.22595257 0.10066712 0.26096848 0.23437953
000120 5e d0 8d bd 58 51 57 be a2 ea 32 be f5 bd a6 3d
       -0.069245085 -0.21027124 -0.17472318 0.081417
000130 58 8d 31 bf 67 c2 a8 be d1 54 e4 be 80 f9 c9 3d
       -0.693563 -0.32960817 -0.4459596 0.098620415
000140 e5 64 7d bd b7 48 55 be eb fe 16 be 22 2c 0c 3e
       -0.0618638 -0.2082852 -0.14745681 0.1368871
000150 2b 47 b1 3d 59 b9 8f 3e 2e 82 40 3d 8d db 90 3d
       0.08656152 0.28071097 0.04699915 0.07073126
000160 6e 31 9a 3d b6 91 a7 3d 07 df 7d 3d 1a 7e c1 bc
       0.07528959 0.08182089 0.061980274 -0.0236197
000170 9c 62 3c 3e 15 ba 00 be 34 70 a8 3d 00 64 8a 3d
       0.18396991 -0.12570985 0.08224526 0.06757355
000180 9e 0c e1 3d bf fe 4b be f2 3b 21 3d 2a 38 0d be
       0.10988735 -0.19921397 0.03936381 -0.13790956
000190 da 43 c6 3d d1 e5 2e 3e 0b 01 2b be 42 67 f5 3c
       0.096809104 0.17079856 -0.16699617 0.029956464
0001a0 95 a8 e4 bd db cc 93 be 9e 93 74 be d5 52 96 3d
       -0.11164967 -0.2886723 -0.23884436 0.07340018
0001b0 d6 7c 6f 3e f4 5f ad be 65 96 45 3e 41 63 d2 be
       0.23387465 -0.3386227 0.19295652 -0.4109135
0001c0 6b 46 b9 3d 8b 32 32 be 71 d8 1c 3c 11 03 bf 3d
       0.09046634 -0.17402093 0.009573088 0.09326757
0001d0 f5 b0 62 bb 8d ce 1f 3d 31 17 b1 bd 80 ee 37 3e
       -0.0034590338 0.03901534 -0.086470015 0.17962074
0001e0 e5 dc 3c 3d 67 90 fc be 49 d4 f4 3d 8a 72 10 3e
       0.0461091 -0.4932892 0.11954553 0.14106193
0001f0 42 17 ea 3d e7 ef 80 3d b3 dc e0 bd 06 4f 03 3e
       0.11430217 0.06295758 -0.10979595 0.12823114
000200 0f 5c 63 3d 74 c2 5b 3d 7f 41 38 be bd 2e 00 be
       0.055507716 0.05365224 -0.17993735 -0.12517829
000210 42 ae b3 3d 37 a0 0d 3e a9 c3 f3 3d c2 ca 8a bd
       0.087734714 0.13830648 0.119025536 -0.06776954
000220 36 79 27 bf f1 d8 e4 bd 27 55 19 3d 11 93 dd be
       -0.6541933 -0.11174191 0.037434723 -0.43276265
000230 40 5e 59 be 51 f1 b9 3c ac 7c 24 bf 4c b2 09 3e
       -0.2122736 0.022698076 -0.64252734 0.13446921
000240 81 2c c8 be 6e 21 8b 3d aa ae 93 3d 81 5e c8 bc
       -0.39096454 0.067934856 0.07211049 -0.024459125
000250 c0 39 6d bd 00 af dd 3d 8c ea ec bd 90 e9 80 bd
       -0.057916403 0.10824394 -0.11568174 -0.062945485
000260 08 df a7 be 3f d4 83 3e 7a b5 98 3d f7 a6 15 be
       -0.32787347 0.25747868 0.07456489 -0.14614473
000270 5d d0 43 3d f6 03 e2 3d f9 29 74 3d 2c 25 18 3d
       0.047806133 0.11035912 0.05961034 0.037144825
000280 71 46 89 3d b6 1b c9 bc 49 97 3f be 10 82 41 be
       0.06702889 -0.024549346 -0.18710054 -0.18897271
000290 42 43 bd 3d cb f6 df bc 69 96 55 3e 35 86 f6 be
       0.09241344 -0.02733936 0.20858158 -0.48149267
0002a0 6f 54 5f 3d 71 15 52 3d 23 dc 01 3e 82 15 e8 3d
       0.05452388 0.05128998 0.12681632 0.11332227
0002b0 fb a8 8f 3c 10 7e 8d 3e bc 32 da be 93 1b 48 3d
       0.01753663 0.2763524 -0.42616832 0.04885442
0002c0 25 c7 97 be 17 69 69 bd 19 d9 88 3c 89 35 e0 be
       -0.29644123 -0.056984987 0.016705083 -0.43790844
0002d0 e3 33 0a 3e f9 d3 a1 3d 78 87 bb be 42 4a 19 3d
       0.13496356 0.07901759 -0.36626792 0.037424333
0002e0 19 d3 da 3d db 0c 74 be 75 9b 81 bd e4 94 8c bb
       0.10684795 -0.23833029 -0.06328479 -0.00429021
0002f0 cf f2 9d 3d 6c d7 27 bd 0c 21 36 bb c1 0a c1 bc
       0.07712328 -0.040976927 -0.0027790694 -0.023564698
000300 74 29 17 bd 7f e0 bf bd 77 87 2f 3c 19 d2 9a 3d
       -0.036904767 -0.09368991 0.01071345 0.07559604
000310 31 83 3b be 61 43 5d ba 82 44 29 bf aa 29 6d 3d
       -0.18311764 -0.0008440521 -0.6612016 0.057901062
000320 c7 1f b9 3d 45 50 c4 be f1 19 e2 3c a3 1f b9 3c
       0.09039264 -0.3834249 0.02760026 0.022598093
000330 4a 3b 19 3e d8 4d 43 3e e1 e1 fd be 98 4b 4d be
       0.14964023 0.19072664 -0.49586394 -0.20048368
000340 15 00 f1 be a6 46 b8 be 9d 05 c6 be 57 7b 36 be
       -0.47070375 -0.359914 -0.38676158 -0.17820488
000350 fe a0 fe 3b 99 1d 16 3e 27 e1 93 be 19 37 84 be
       0.0077706566 0.14659728 -0.28882715 -0.25823286
000360 e3 df 17 bf ca 9f fb 3d 6d 8c 20 be 00 53 dc 3d
       -0.59326 0.12286337 -0.15678568 0.107580185
000370 e3 52 97 be f0 77 1a bf db c1 00 3c b1 7d d8 be
       -0.29555425 -0.6033926 0.007858719 -0.42283395
000380 01 b1 9d 3d a4 e3 08 3d 51 db d3 be b4 90 37 3e
       0.076997764 0.03342022 -0.41378263 0.17926294
000390 54 ea a7 bd 1e cd 29 3e 35 dc 91 3c 6c d7 1e 3d
       -0.081989914 0.16582152 0.017805198 0.03877966
0003a0 7a 82 d3 bd c1 af 8b 3e 49 45 ce 3d ff b2 06 3e
       -0.10327621 0.27282527 0.10071809 0.13154219
0003b0 b1 c0 c0 be 29 47 95 3d 5b 2f c4 bc ec 72 b8 be
       -0.37647012 0.07288963 -0.023948362 -0.36025178
0003c0 10 b0 bb bb 00 c4 21 3e a4 d7 17 3d 93 f4 31 3e
       -0.0057277754 0.15797424 0.037070885 0.17378454
0003d0 b5 e7 ad be f9 17 c8 3c 97 d7 78 3d 33 fd c1 3d
       -0.3396584 0.024425494 0.060752477 0.09472122
0003e0 a0 7b 38 3d ae 49 32 3e 9f 82 eb bc 0d cf 0c bd
       0.045039773 0.17410919 -0.028748808 -0.034377147
0003f0 9b 0f 4c be b0 47 9f be 29 69 c1 bd 0e 6f 6e 3c
       -0.19927828 -0.3110938 -0.09443886 0.014552845

layer2.bias f4 [10]
000000 f1 36 84 bd 25 88 81 bd cf 8b 79 bd 88 17 f0 bc
       -0.06455792 -0.06324796 -0.060924347 -0.029308096
000010 46 e4 ea 3c 70 65 0e 3d 99 19 14 3a 78 65 ce bd
       0.028673302 0.034764707 0.00056495663 -0.100779474
000020 1a 04 04 3e 88 30 04 3c
       0.1289219 0.008068211
